model.tflite (tflite, 15540 bytes, 7 tensors)

sequential/dense_1/MatMul;sequential/dense_1/Relu;sequential/dense_1/BiasAdd f4 [32]
000000 96 a8 09 3f e7 6a 78 3f 7b 15 ca bd 19 fc d7 3e
       0.53772867 0.9703812 -0.09867378 0.42184523
000010 55 29 2b 3d bc e4 75 3d 2d e0 c7 3f 67 8d 0b bf
       0.041787464 0.06003259 1.5615288 -0.5451264
000020 2d 83 45 40 aa f8 15 40 c0 54 a1 be 18 95 f6 3f
       3.0861313 2.3433022 -0.31509972 1.926425
000030 22 9a 8a 3f 36 4c c6 be d0 db 10 40 27 17 17 40
       1.0828288 -0.3873002 2.2634163 2.360788
000040 0c b8 ed bd 67 87 d9 be f5 48 8c 3f 54 39 47 3f
       -0.1160737 -0.42486116 1.0959765 0.7782185
000050 4d 77 57 40 7a b6 7b bf 34 0d e7 3f 3f 33 2e 3f
       3.3666565 -0.9832531 1.8050904 0.68046945
000060 21 d2 42 3f 3a 65 c9 3d c6 93 36 3f 69 50 b9 3f
       0.7610188 0.098337606 0.71319234 1.4477664
000070 71 16 c3 be 5c 64 c2 3f 8f d6 7c bf 04 15 a4 3c
       -0.3810306 1.5186877 -0.9876489 0.020029552

sequential/batch_normalization/batchnorm/mul_1;sequential/batch_normalization/batchnorm/add_1;sequential/dense_1/MatMul;sequential/dense_1/Relu;sequential/dense_1/BiasAdd f4 [32, 64]
000000 64 29 f1 3d da 51 bf 3e e8 35 30 3f 65 06 55 3e
       0.11775473 0.37367135 0.68832254 0.2080322
000010 33 fb 65 3e 0f cd 01 3f a4 0d e0 40 21 f7 a2 be
       0.22459106 0.5070352 7.001665 -0.3182917
000020 ea cc 76 3e 5b 6c 4d 3f 42 34 9c bf 63 7e 30 3f
       0.24101606 0.8024346 -1.2203448 0.6894285
000030 f9 24 01 bf 1f 07 a8 3f 20 bd 3a 3f 15 d6 11 3f
       -0.5044704 1.3127173 0.7294483 0.5696729
000040 7d 9b 30 bf e5 a7 65 bf 0c 10 7b 3f 60 9f 6d be
       -0.68987256 -0.8970931 0.9807136 -0.23205328
000050 d0 40 eb 3d f4 37 84 bf f8 28 92 3e 92 66 dc bd
       0.114869714 -1.0329576 0.28546882 -0.10761751
000060 82 11 7d be e1 a7 e3 be d3 79 5d bf 3f 1c 46 3e
       -0.2471371 -0.4446402 -0.86514014 0.19346713
000070 c3 bc 63 3f c5 53 c1 be ae ad a9 bf 80 e1 a8 be
       0.889599 -0.37759224 -1.3256128 -0.32984543
000080 53 ba 7e 3e fd ca dd 3e 35 24 83 3e 6d ad 66 3d
       0.24875765 0.4331893 0.2561356 0.056317735
000090 f9 0c 9b 3f fd f3 13 bf ba 6f 33 3e 32 ba c2 3f
       1.2113334 -0.5779417 0.17523089 1.5213072
0000a0 f5 4a a8 3e 7f d7 91 be fd f6 78 be 0d 23 3d 3f
       0.32869688 -0.28484723 -0.24312969 0.7388161
0000b0 b6 cd 8c be b5 d6 10 3f 70 b9 57 3f bf 24 07 3f
       -0.27500695 0.56577617 0.8426733 0.52790445
0000c0 c1 d5 ea 3e 46 dd 40 3f 44 97 97 3f 9c 54 00 bf
       0.45866206 0.75337636 1.1843038 -0.50129104
0000d0 e6 de 29 3e c5 3a 1c 3e 88 0b 35 bd e7 ca 83 bd
       0.16588935 0.15256794 -0.04420045 -0.06435185
0000e0 41 fc a0 bf a3 64 c5 be 05 6b 33 3e 52 20 27 c0
       -1.2576982 -0.38553342 0.17521293 -2.6113477
0000f0 7e eb d1 bf f4 84 a1 3e 73 18 83 bf b6 10 92 be
       -1.6399992 0.31546748 -1.0241836 -0.28528374
000100 4d ff b7 3d 39 87 28 3c 3f 19 be be 11 54 c3 3d
       0.08984242 0.010286146 -0.37128636 0.09537519
000110 dc 8b 8d 3e 2b 51 21 3f e3 73 0e 40 6e f2 02 3f
       0.27645767 0.6301448 2.2258232 0.5115117
000120 35 0a c6 be 8d a7 70 3e ac 97 98 bf 48 64 0a 3f
       -0.38679662 0.23501416 -1.1921287 0.5405927
000130 6b 68 bc be a8 77 5d 3f 54 fd 84 3e 53 fd 87 3e
       -0.36798415 0.86510706 0.25974524 0.2656046
000140 f5 61 9c be 3a c1 2b bf 08 1e 3c 3e 3e cf d2 bc
       -0.30543485 -0.67091715 0.18370831 -0.025733586
000150 7c 00 ce 3e d2 34 86 c0 80 a5 c2 3e 11 ca ee bd
       0.40234745 -4.193948 0.3801689 -0.11659635
000160 fb fc 14 3f 17 69 08 bf b5 c7 91 bf e4 38 22 3e
       0.5819852 -0.53285354 -1.1389071 0.15842015
000170 84 87 db 3e ab 75 83 bf c7 27 c4 bf 53 50 16 3f
       0.42876828 -1.0270284 -1.5324639 0.58716315
000180 ff 7f 72 be 80 e8 2f 3f db 83 83 bf 7b 07 92 3d
       -0.23681639 0.6871414 -1.0274614 0.07130333
000190 98 29 34 3f 74 4c fb bc 04 d7 14 3e e0 09 58 40
       0.7037597 -0.030676104 0.14535147 3.3756027
0001a0 f4 b7 a4 3e 61 e6 d9 3d 61 b3 a6 3f b2 62 17 bf
       0.32171595 0.106396444 1.3023492 -0.5913497
0001b0 5d 81 69 bf bb 5f f1 3e 25 f6 36 3e 7a 66 a7 3f
       -0.9121302 0.4714335 0.17867334 1.3078148
0001c0 b4 9f a0 bd a1 6d 3b 3f db 73 5c 3f ea 29 36 be
       -0.07842961 0.73214155 0.8611428 -0.17789426
0001d0 8e 98 84 3f aa 7b e6 3f 08 8d 18 bf e6 80 2d bf
       1.0359056 1.8006489 -0.59590197 -0.6777481
0001e0 5a 8a e2 bf db 27 2c 3f 36 04 9b 3e 1d 6c d0 be
       -1.7698472 0.67248315 0.3027665 -0.40707484
0001f0 e4 27 12 3f 9a 04 22 bd 0f 72 39 3f 36 b7 01 3f
       0.5709212 -0.03955517 0.72439665 0.5067018
000200 d2 da f5 be 1e de d8 3e bf 47 04 c0 e0 25 ff 3d
       -0.4801851 0.42356962 -2.066879 0.12458396
000210 bf 1a fb bd 51 fc b3 be cf c6 91 40 64 52 22 3f
       -0.12260961 -0.3515344 4.5555186 0.6340697
000220 d3 30 12 3f 98 c4 66 3f 67 da 4d bf c7 6a c8 3e
       0.5710575 0.9014373 -0.8041138 0.39143965
000230 5b 59 5f 3e 17 11 a5 3e 09 82 74 3f 7a c6 62 3e
       0.2181143 0.322396 0.9551092 0.22146025
000240 72 32 5a be 6a 00 c3 bf 61 5d c5 3e f4 e1 56 bf
       -0.21308306 -1.5234501 0.38547805 -0.8393853
000250 a4 8e d2 3e 70 71 88 bf 36 99 6a 3f a9 34 4d bd
       0.4112445 -1.0659618 0.9164003 -0.05009905
000260 1a fd 56 3f 2f 79 8b bf 52 2e 26 bf 7d 85 81 3c
       0.8397995 -1.0896357 -0.6491443 0.015810722
000270 e0 54 a1 3f 26 ab 0d c0 32 3b 35 be 27 15 79 3e
       1.2604027 -2.213571 -0.17698362 0.24324475
000280 aa b7 48 3e 4b c8 54 3f a5 96 72 3f 47 81 f9 3e
       0.19601312 0.8311812 0.94761115 0.48731443
000290 98 62 7c 3f a5 8f 1d 3f 87 0b 16 3d b9 7e 78 3f
       0.9858794 0.6154731 0.036632087 0.97068363
0002a0 8b 0c a7 3d 9d bf e7 3e 76 f6 fb 3e 30 04 c6 be
       0.08156689 0.45263377 0.49211472 -0.3867507
0002b0 48 d5 86 be ff 6e 46 3f ff d3 84 3f 02 3e 41 3f
       -0.26334596 0.77513117 1.0377196 0.7548524
0002c0 20 0b 95 3e 2b 46 0e 3f 6f 76 43 3f e0 60 ac 3d
       0.2911005 0.5557582 0.7635259 0.08416915
0002d0 b1 fe 22 3f 3c 91 d5 3f 85 05 19 3d 7e 95 03 bf
       0.6366988 1.6684947 0.03735878 -0.5139998
0002e0 70 e9 4d 3e b5 62 de be 98 36 5b 3d 86 63 ab bf
       0.2010858 -0.43434682 0.05351886 -1.3389747
0002f0 13 e2 d6 be 3d 71 54 3e 9c b6 a1 3c cb 50 b4 3e
       -0.41969356 0.20746322 0.019740395 0.3521789
000300 81 bc 52 bf 6d 38 be be 56 01 bc 3f 95 2e 31 bd
       -0.82318884 -0.37152424 1.4687908 -0.043257315
000310 18 35 7c 3e 32 d6 30 bd a4 75 a7 c0 2b dc e3 be
       0.24629629 -0.043173023 -5.2331104 -0.44503912
000320 46 5e 93 bf cb 86 9e bf d2 2e a6 3e 7c a4 08 bf
       -1.1513145 -1.2384886 0.32457596 -0.53375983
000330 5e f3 6f 3f 44 19 5c 3f 7a 19 8b 3e 9a ce 54 3e
       0.93730724 0.8597605 0.27167875 0.20781937
000340 fd 8f 31 be b9 f6 bd be 9b fd a8 bf 97 33 6c 3f
       -0.17340083 -0.37102297 -1.3202394 0.9226622
000350 28 3e c1 be dd d8 08 40 cb 19 10 3f 14 15 25 bf
       -0.37742734 2.1382363 0.56289357 -0.6448529
000360 20 15 9c be ef 93 09 bf f9 49 45 3f 14 20 53 be
       -0.30484867 -0.53741354 0.77066 -0.20617706
000370 e2 d1 a6 3f 43 33 c4 3d 3f be 88 3f 67 49 c6 3d
       1.3032801 0.0958009 1.0683059 0.09681969
000380 64 af e9 3e 4f be 67 bf 1e db 33 bd 9c 7c 2f bf
       0.45641625 -0.9052476 -0.04391014 -0.68549514
000390 31 be a1 bf 75 25 d9 3d 25 fe 09 bf 92 9f 0d 3f
       -1.2636167 0.106028475 -0.5390342 0.5532161
0003a0 9c 94 83 bf 12 e5 7f be d1 fe 80 be ab fc 66 3d
       -1.0279727 -0.24989727 -0.2519441 0.056393307
0003b0 96 e7 d2 3e 90 df a2 3e f3 ed 4c 3f 64 40 25 bf
       0.4119231 0.3181119 0.8005058 -0.6455138
0003c0 d2 44 3a bf 6b 9d 40 3f 14 15 ab bf 3c 56 3c be
       -0.7276126 0.752402 -1.3365808 -0.18392271
0003d0 b6 c1 6b bf a2 55 6e bf 61 47 d3 be 8e a4 89 3d
       -0.92092454 -0.93099415 -0.41265395 0.067208394
0003e0 84 91 18 3f f1 af c4 bf 7c 25 cb bd e8 be 1b 3f
       0.5959704 -1.5366193 -0.09919259 0.60838175
0003f0 e1 8e e1 be 73 09 ce 3e 92 c5 12 bf ed 7b c9 bf
       -0.4405432 0.40241584 -0.5733272 -1.5740944

sequential/dense_2/MatMul;sequential/dense_2/Relu;sequential/dense_2/BiasAdd f4 [16]
000000 7f ac 13 40 97 71 1e 40 a3 79 16 40 ec 62 99 3f
       2.3074033 2.475683 2.351174 1.1983314
000010 e7 bd 37 40 29 0a 27 40 f2 8f 18 40 2a 1b 00 40
       2.8709657 2.6099951 2.3837857 2.001658
000020 c8 0f f1 3f a7 97 41 40 1b f4 13 40 63 bb fc 3f
       1.8832941 3.0248811 2.311774 1.9744686
000030 41 e0 e3 3f 91 22 73 bd 48 f7 26 40 00 4e 84 bd
       1.7802812 -0.059359137 2.6088428 -0.0646019

sequential/batch_normalization_1/batchnorm/mul_1;sequential/batch_normalization_1/batchnorm/add_1;sequential/dense_2/MatMul;sequential/dense_2/Relu;sequential/dense_2/BiasAdd f4 [16, 32]
000000 50 73 8a bd ac 8a e1 3b 7f 76 84 bd ee 6c 35 3d
       -0.06760275 0.006882986 -0.06467914 0.044293337
000010 08 7d 95 3d 18 f7 f1 bd e9 ed 95 bd 2c b8 49 bd
       0.072992384 -0.118147075 -0.073207684 -0.049247906
000020 12 79 2a bd 6d ed 9b bd 8e be 9b bd 30 aa 86 3d
       -0.041619368 -0.07613645 -0.07604705 0.065754294
000030 b8 08 20 3e 40 51 c1 bd cb 69 2b 3e 40 60 c2 bd
       0.15628326 -0.09439325 0.16739576 -0.094910145
000040 61 95 9a 3c 08 da 16 bb 5b 42 a9 3d 6b 2e de 3d
       0.018870058 -0.002301814 0.082646094 0.10848697
000050 be 5e 30 3e 1b 64 05 bd bd 42 8b bd 67 06 f8 bc
       0.17223641 -0.03256617 -0.06799839 -0.03027649
000060 e1 7e a4 3d 10 61 a6 3d ef ce fd 3c b7 05 d0 bd
       0.08032013 0.08123982 0.030982463 -0.1015734
000070 99 96 0b 3b 39 ca cb bc 5e e8 39 bd 10 70 cc 3d
       0.002129948 -0.0248767 -0.04538762 0.09982312
000080 4d 52 5b bd 3f 49 19 bd ac 72 c4 3b f9 c4 c2 3d
       -0.053545285 -0.03742337 0.0059951153 0.09510226
000090 ed c3 12 3c c9 c5 bf bc e4 cf 2c bd 92 6a 7a bd
       0.008957845 -0.023409741 -0.042190447 -0.06113679
0000a0 57 ac 50 be 33 87 0c be e3 be 0b bd a5 6f f9 3d
       -0.20378242 -0.1372345 -0.03411759 0.12179498
0000b0 35 6c 0e 3e 0e 24 a1 3c 09 4a 8e 3e 7d 27 66 be
       0.13908465 0.019670513 0.2779086 -0.22476001
0000c0 36 7b 00 be 1a b1 d3 bb b5 bf 69 bd 33 45 2c 3e
       -0.12547001 -0.006460321 -0.05706759 0.16823272
0000d0 5d 32 70 be 66 78 c7 bb 58 d6 8b bd 98 3c f6 bc
       -0.23456712 -0.0060873507 -0.06827992 -0.03005819
0000e0 ab 68 e1 3d f1 e1 5f 3d bb f9 c8 bc 70 6f d7 bd
       0.11006292 0.054658834 -0.024533143 -0.10519302
0000f0 22 7e 4c 3d 8b a4 7e bd 31 d7 93 bd 60 04 0b 3d
       0.049924977 -0.06216864 -0.07218779 0.03393972
000100 38 86 84 bd c8 0f d9 bc 44 02 1b bd dc 84 b9 3d
       -0.06470913 -0.026496783 -0.037843958 0.09058544
000110 77 a0 12 3d d7 e4 5d 3c 68 25 fc bc d2 a9 54 bc
       0.035797562 0.013543329 -0.030779555 -0.012979941
000120 92 13 07 be 2a e3 08 bd 33 89 10 bd ff 60 ac 3d
       -0.13191059 -0.033419766 -0.035287093 0.08416938
000130 2a 45 c0 3c 2d ca f9 ba 76 17 66 3e 27 fc cc bd
       0.02347048 -0.0019057445 0.22469887 -0.10009032
000140 c1 d2 1d 3d 89 65 1a bd 33 5b 1c 3d d8 9a b1 3d
       0.03853107 -0.037694488 0.03817291 0.08672112
000150 fa 88 04 bb d8 93 7e bd c0 ca 1e bd 1e 10 01 be
       -0.0020223246 -0.062152714 -0.038767576 -0.12603804
000160 3a 98 8f 3c bc 14 92 3d 1a f1 4c bb 3e b0 3d bd
       0.017528642 0.07132861 -0.0031271637 -0.046310656
000170 8c 5d c0 bc 32 ae 4b bd b4 d5 93 bd fd fe d3 3c
       -0.023482107 -0.049726672 -0.07218495 0.025878424
000180 53 ea 65 3d c7 f2 70 3d 3f 26 6c 3d 08 e8 4c be
       0.056131672 0.05882528 0.05765366 -0.20010388
000190 ba 47 35 be 4f 00 af bd 5d 24 1c 3d 04 29 46 3d
       -0.17703143 -0.08544981 0.038120616 0.04837896
0001a0 78 24 24 bd b9 61 c0 bd 89 ed 82 3d 09 64 39 be
       -0.04007384 -0.09393639 0.063929625 -0.18104567
0001b0 8b cb 52 be ae 85 05 3d 3e 56 ff 3d 0b 3d 85 bc
       -0.20585458 0.03259819 0.12467621 -0.01626446
0001c0 6d 14 f9 bb f9 af 4a 3d 78 47 8b be 9d 37 cd be
       -0.007601312 0.049484227 -0.27202964 -0.40081492
0001d0 d4 88 ce 3d b6 a3 2d 3d c9 21 d2 3d 67 9e 17 3c
       0.10084692 0.042392455 0.1026035 0.009254075
0001e0 ab a3 f6 bd 01 c8 21 be 8e d8 71 3c 24 49 39 bd
       -0.12042936 -0.15798952 0.014761103 -0.045235768
0001f0 16 8c 92 bd 8c b2 24 3d 29 b0 40 3d 5b ce 25 be
       -0.071556255 0.040209338 0.047043 -0.16192
000200 5d 58 85 bc 1f 97 3b bd 3d 6f d9 bc cd 70 f2 bc
       -0.016277486 -0.045798417 -0.0265423 -0.029594803
000210 57 a6 c4 bc cb 02 f5 bc 18 db 46 bd 43 72 0a bd
       -0.024005098 -0.029908558 -0.048548788 -0.033800375
000220 c3 95 b0 bd dd 2f 60 3c 8d 67 a1 bd be 00 19 3d
       -0.08622315 0.0136832865 -0.07881079 0.037354223
000230 d4 c4 28 3d aa 47 39 bd 69 24 17 3e 3f 18 c4 bd
       0.041203335 -0.04523436 0.14759983 -0.09574937
000240 b3 55 5f bd 08 eb 4a bc 95 48 62 3e 73 eb 33 3e
       -0.05452509 -0.012385137 0.22098 0.17570285
000250 f4 78 4e bd 31 f9 e1 3c 99 7d 87 bc ab 57 91 bd
       -0.05040832 0.027584644 -0.016539382 -0.070967995
000260 4c 91 46 bd 13 39 89 3d a2 98 b4 bd 38 6b 9c bd
       -0.04847841 0.06700339 -0.08818175 -0.07637638
000270 04 e1 d6 3c de cb 12 bd e9 9f 6e bd 0f 5f 6c 3d
       0.026230343 -0.035838954 -0.05825797 0.057707842
000280 7d 22 24 bd 32 fc b7 bd fc 3c ed bd d8 33 0d 3d
       -0.040071953 -0.08983649 -0.115838975 0.03447327
000290 97 e6 aa bb 78 91 16 bc 78 a2 9e bd 3a 4c 97 bc
       -0.0052154767 -0.009189956 -0.07745832 -0.018468965
0002a0 d5 c8 ae 3d 1c 0d da bd 64 0e 1d bd c4 9a 03 3e
       0.085343994 -0.10647032 -0.038343802 0.12852007
0002b0 2e 8c 41 3d b8 70 03 bd 1a bc 71 3e f5 6c 94 3c
       0.047252826 -0.03208992 0.23606911 0.018118361
0002c0 87 9f b8 bd 8e f3 bd bd 37 df 52 3e 1f 7b 8a bc
       -0.090148024 -0.0927497 0.20592962 -0.016904412
0002d0 14 02 7b 3d fd f6 24 bd ac f1 87 bd 05 18 03 bd
       0.06128128 -0.04027461 -0.06637892 -0.03200533
0002e0 1d b4 56 3d e3 59 f5 3c e6 46 1e bd f1 58 22 bd
       0.052417863 0.029950088 -0.038641833 -0.039635602
0002f0 a6 ef 94 bb 53 dd 02 3a db ae f1 bb a5 8a 78 3c
       -0.00454517 0.00049920863 -0.0073755807 0.015169774
000300 c0 5e d4 3c 9c 73 fe 3c 3d ed f2 bc 44 1e 07 3e
       0.025924087 0.031060986 -0.02965414 0.13195139
000310 88 f6 a6 3d ff 2b b6 bd 68 6a c1 bd 62 33 2b bd
       0.08152491 -0.0889511 -0.094441235 -0.04179705
000320 5c 88 e8 3c 02 9b 3d be e5 f3 2a 3d 0e a1 45 3d
       0.028385334 -0.18516162 0.041736502 0.048249297
000330 81 62 db 3d 06 82 83 bd 86 70 25 3e 29 ab 2b bd
       0.107121475 -0.064212844 0.16156206 -0.041911278
000340 e1 4b 22 be 73 ee c7 bd 86 6e 0e 3e f1 88 44 3e
       -0.15849258 -0.097622775 0.13909349 0.19192864
000350 83 34 14 bd f9 ee 97 bd f4 18 54 bc 2a f6 ef bd
       -0.03618289 -0.07418627 -0.012945402 -0.11716874
000360 16 0c a4 3d 3b 84 a9 3b 7b 8a 07 3d 25 55 d6 bd
       0.08010118 0.005173234 0.03309105 -0.10465459
000370 bf 1d 85 3d 85 5d c6 bc e7 11 dc bd 69 9c e4 3c
       0.06499814 -0.024214515 -0.10745602 0.027906613
000380 3d 14 4a bd 40 9a 89 bd 14 35 b2 bd 42 b7 8f 3d
       -0.049335707 -0.06718874 -0.0870153 0.070173755
000390 3a 19 62 3d 6d d8 99 3c d7 f7 27 bc de 9a 61 bd
       0.05519984 0.018779958 -0.010251961 -0.055079333
0003a0 a8 b5 16 be 97 7f a3 bd b1 24 2c 3c be d2 39 3e
       -0.14717734 -0.0798332 0.010506795 0.18146798
0003b0 13 a1 6d 3d d4 b0 7e 3d fa 63 19 bd ce de 34 be
       0.05801494 0.062180355 -0.03744886 -0.17663118
0003c0 f9 03 29 be c8 fe fb bc 3c 1c 28 3e d6 32 c1 3e
       -0.16505422 -0.030761138 0.1641702 0.37734097
0003d0 71 63 8a be 36 53 6b bd 02 8a 09 bd b8 ac 80 bd
       -0.27028993 -0.057452403 -0.03357888 -0.062829435
0003e0 8b eb f4 3d 1e 42 92 3d 38 b0 b2 bc e4 af b8 bd
       0.11958989 0.07141517 -0.021812543 -0.090179235
0003f0 f4 a8 ca 3d 7e 5d 52 3c 4d 25 cd bd 3c e3 a9 3d
       0.098955065 0.012839673 -0.1001688 0.08295295

sequential/batch_normalization_2/batchnorm/mul_1;sequential/batch_normalization_2/batchnorm/add_1;sequential/dense_3/MatMul;sequential/dense_3/BiasAdd f4 [1, 16]
000000 11 b2 18 bd 32 ba f2 bc 0a 45 60 bd 9d ef 7d 3d
       -0.037279192 -0.0296298 -0.05475334 0.06199609
000010 df ed 31 bd cc 6a 83 bd 96 46 26 bd 2a 20 ef bc
       -0.043439742 -0.06416854 -0.04059466 -0.029190142
000020 f5 ff 1c bd e9 ee 29 bd 19 b6 66 bd c7 3b 2f bd
       -0.038330037 -0.041487608 -0.056326006 -0.042781617
000030 77 44 12 bd 16 b0 29 3d cf 7d 20 bd d3 10 26 3d
       -0.035709824 0.041427694 -0.03918248 0.04054339

sequential/dense/BiasAdd/ReadVariableOp f4 [64]
000000 d5 cb ce bc be e0 61 3e 89 6f c8 be be 2e 24 bd
       -0.025243679 0.22058389 -0.39147595 -0.04008364
000010 fa a5 e7 3d cb 1d 3e be a3 ee e1 be 37 09 6b be
       0.113109544 -0.18566053 -0.44127378 -0.22952734
000020 32 f7 2b be 6d 4a 25 ba 51 02 46 be cd 6d 03 be
       -0.16793516 -0.0006305341 -0.19336821 -0.12834854
000030 08 7a f5 be d6 9e fe bd 19 4f 04 3d dc bf de bc
       -0.47944665 -0.12432639 0.032301996 -0.027191095
000040 6d af 07 3d c4 69 d8 bd a8 26 05 be 9a 11 11 be
       0.033126283 -0.10567048 -0.13003027 -0.1416687
000050 6f a7 3a be d7 60 dd be 29 da f2 3d 60 b6 30 bd
       -0.18227933 -0.43237945 0.11858017 -0.043142676
000060 e4 81 54 3d 69 f5 34 3d de ac 51 be e5 5c be 3e
       0.051881686 0.044179354 -0.204761 0.37180248
000070 18 cc 16 be a1 03 a1 be 2b dc 05 bf 91 47 9d bd
       -0.14726293 -0.3144808 -0.52289075 -0.07679666
000080 ed bd b6 3e 9f 4d e0 bd 41 9a 71 be c7 4d 60 be
       0.35691777 -0.10952305 -0.23594 -0.2190467
000090 61 08 aa be 24 6b b6 be 46 87 d3 bd 4a 00 cc be
       -0.33209518 -0.35628617 -0.10328536 -0.3984397
0000a0 71 07 c0 3d 50 a3 5d 3d 48 d1 a5 be 0d 64 46 be
       0.09376419 0.054110825 -0.3238623 -0.19374104
0000b0 85 48 06 be 17 9c 10 3d 1c 4e 1c 3e d2 99 fa bd
       -0.13113602 0.03530511 0.15264171 -0.1223637
0000c0 1b d9 90 3d e7 1d 4a be 12 b3 10 3e 55 0c fd bc
       0.070726596 -0.1973797 0.1413081 -0.03088967
0000d0 cf da ad bc 6f 55 a9 be 69 69 a0 3d 5a c3 54 bd
       -0.0212225 -0.33072993 0.078326054 -0.051944114
0000e0 73 86 fa be b9 75 24 3e 1d b7 4c 3e fe 9a ed bd
       -0.48930702 0.16060533 0.19991727 -0.11601828
0000f0 bb 5a 33 be 06 d3 92 bb d2 6e 29 be 2b 8a c4 bd
       -0.1751508 -0.0044807224 -0.16546181 -0.09596666

sequential/dense/MatMul f4 [64, 6]
000000 df e4 db bd 91 39 34 3d 37 35 f7 3d 20 38 13 be
       -0.10737013 0.044000212 0.12070697 -0.14376879
000010 50 ce 16 3e 12 61 20 bf 29 d8 7b bd 99 f7 b1 3d
       0.1472714 -0.6264812 -0.061485443 0.08689804
000020 19 04 95 3d e6 bb 82 bc c5 c0 e2 3e 44 b3 db be
       0.07276172 -0.015958738 0.44287696 -0.42910206
000030 ed 92 fe 3d 9b 5b 87 be 39 66 a9 be fc 23 ec 3c
       0.124303676 -0.26437077 -0.33085802 0.028825752
000040 5c 8e 96 bd 9c dc ac bd 4c f3 84 3e 4a fd 0b bd
       -0.07351372 -0.084405154 0.2596687 -0.034177102
000050 60 6d eb 39 e9 af 9c be 40 05 fa 3e f9 93 4f 3d
       0.00044904184 -0.3060296 0.4883213 0.050678227
000060 fa 15 34 bd 1f 3c d3 bb d5 85 f8 3b 12 86 b8 3a
       -0.04396627 -0.006446376 0.0075843134 0.0014078042
000070 fa a0 09 3e 2c 0e 5f 3f fd 0a f1 3c 9f 45 0d b7
       0.13440314 0.87131 0.029424185 -8.420465e-06
000080 d6 8d ff bc b1 02 3b bd 6a 7c 18 be f8 af 13 bf
       -0.031195562 -0.045656864 -0.1489121 -0.5769038
000090 0b a8 c7 3d 57 2d 37 3e 79 60 89 3d be d3 06 be
       0.097488485 0.1788839 0.06707854 -0.1316671
0000a0 41 b6 78 be ac 84 70 bd 66 db ae 3e 97 79 81 3c
       -0.24288274 -0.058720276 0.34151763 0.015805049
0000b0 f0 58 59 bb 4b ad 89 be 1b 56 87 be 2d 26 bd 3d
       -0.0033164583 -0.26890025 -0.2643288 0.09235797
0000c0 91 6f 98 3d b9 5e dd bb df d6 ed 3c 3f 95 01 bd
       0.074431546 -0.0067556766 0.029033123 -0.031636473
0000d0 e4 85 eb be 64 64 c0 3e 32 79 c0 be 7a 8c 65 3c
       -0.46000588 0.37576592 -0.37592465 0.014010543
0000e0 90 5f 18 3d 32 a9 15 bd 60 28 df 3e 8c 90 3e be
       0.03720051 -0.03653831 0.4358549 -0.18609828
0000f0 30 1b 7b bd e1 6a b8 be 67 3d 0e 3d 17 70 7a 3e
       -0.061305225 -0.36019042 0.034726527 0.24456821
000100 5e 11 cf bc 82 e9 38 bd 94 ef f7 3d 61 37 a0 3e
       -0.025276836 -0.045144565 0.12106243 0.3129225
000110 9c ea cb 3c b1 29 b3 be e8 e0 74 be 1c d5 91 3e
       0.024892144 -0.34992746 -0.2391392 0.28482902
000120 e5 17 c6 bd 7b e4 99 be 0e c9 90 be 44 11 8c 3e
       -0.09672526 -0.3005713 -0.28278393 0.27356923
000130 dd a4 a4 bc 39 03 a8 bd 8e de 82 3c 72 b8 c6 3e
       -0.020098144 -0.0820374 0.015975263 0.38812596
000140 d8 7c 1f 3e d2 65 c7 bd de 91 87 3e 4e 33 da bd
       0.15574968 -0.097362176 0.26478475 -0.10654317
000150 1e f2 05 be 42 86 bd 3c 84 47 d4 3d c5 b7 91 be
       -0.13080642 0.023135308 0.10365203 -0.28460518
000160 56 32 cf 3e 02 4d 4d 3e e2 9b db bd d1 19 32 bd
       0.4046809 0.20048907 -0.10723092 -0.04348165
000170 49 21 ab 3e 71 35 aa be b7 46 84 3c 08 b9 ae 3b
       0.33423832 -0.33243898 0.016147 0.005332116
000180 94 19 48 3e e0 a2 fa bc 82 29 f0 3d c2 d9 71 be
       0.19541007 -0.030595243 0.11726667 -0.23618224
000190 23 46 e9 3e 96 9a 94 3e 20 94 98 39 8e be e4 be
       0.45561323 0.2902419 0.0002910206 -0.44676632
0001a0 05 9c 9f 3d 9a 03 8e 3e e8 db 7c 3d a0 43 96 bc
       0.0779343 0.27737123 0.061733156 -0.018342793
0001b0 75 96 aa 3d 3f 0a 85 3e dc fc 13 3d 01 ff b6 be
       0.08329479 0.2598438 0.036129817 -0.35741428
0001c0 5f ad 65 be 86 fe b0 3e b1 fd 8b be 1b b2 8b be
       -0.22429417 0.34569186 -0.2734199 -0.2728432
0001d0 1d 45 93 be a8 2f a7 3e a9 46 1b bd 34 b4 ad 3d
       -0.28763667 0.32653546 -0.037909184 0.08481637
0001e0 24 35 7e be e5 1b 10 3e 0d 07 b0 3e b4 04 c8 bd
       -0.24824959 0.14073141 0.3438038 -0.09766522
0001f0 6a 36 b0 be 93 ea 95 3e 9c 10 0a 3e bb db a3 3d
       -0.34416515 0.29280528 0.13482898 0.08000895
000200 3a ff 8a be e3 d9 48 3e d6 ac 89 bc 82 72 84 3d
       -0.27147847 0.19614367 -0.016806047 0.06467153
000210 b9 58 98 bd 3d 36 0a 3e 3b 0d d9 3e 1f 62 3f be
       -0.074387975 0.13497253 0.42392907 -0.18689774
000220 b1 f2 6a 3e e5 b9 ba 3d dc ab 17 3e 6e 34 0e be
       0.22944142 0.09117488 0.14811653 -0.13887188
000230 b5 fd b5 3c 04 d6 2c be e8 c0 a1 be ac c9 03 be
       0.022215704 -0.16878515 -0.31592488 -0.128699
000240 46 1b 16 be 89 60 84 3e 1c ca d7 3d 51 3a af be
       -0.14658841 0.258549 0.10536596 -0.3422418
000250 96 6c ca 3e c8 8d 39 3e db 3c fd 3d 62 61 2b 3d
       0.3953597 0.18120492 0.12365123 0.04184092
000260 f7 e4 b3 be 4b 44 fd be 39 04 d7 3c 29 43 9b bc
       -0.35135624 -0.49466166 0.02624713 -0.018952923
000270 e0 ad e8 bd 98 35 f9 be fa 66 eb bc 2d 51 a1 3e
       -0.11361289 -0.486737 -0.028735626 0.31507245
000280 ab 35 1b 3c d8 76 a8 bc 91 29 d1 3d ce fa 06 3e
       0.009473245 -0.020564482 0.10213006 0.13181612
000290 e1 ab 3c 3c cb 1d a2 be 30 fe e5 3e 30 64 8b 3d
       0.0115155885 -0.31663355 0.44920492 0.068062186
0002a0 f9 16 54 3b c0 da b0 3e 02 d1 ed 3d dd 23 12 be
       0.0032362326 0.34541893 0.11612131 -0.14271493
0002b0 72 b4 84 3e c8 ed 29 be ba 0d ae bc 9c 17 24 bd
       0.2591892 -0.16594613 -0.02124678 -0.04006158
0002c0 eb 80 de 3e 9c 40 61 3e eb 12 45 bc f6 7e 0d bd
       0.43457732 0.21997303 -0.012028436 -0.034544908
0002d0 1f ca e9 bd 98 5c 2a be d9 e4 a5 be af 03 d6 3d
       -0.11415505 -0.16636884 -0.3240116 0.10449921
0002e0 d7 3b 2a bd 09 d9 22 bd 85 7d 45 3e c2 5d 13 3e
       -0.041560974 -0.039757762 0.19286163 0.14391235
0002f0 68 7a a3 39 14 a6 49 3e bb 06 36 be 0c cf 3d 3f
       0.00031180982 0.1969226 -0.17776005 0.74144053
000300 7c 39 85 3b e9 a4 10 be 48 ac 84 bd 50 e8 89 3e
       0.0040656906 -0.14125408 -0.064781725 0.26935053
000310 b4 49 a5 be 4a 76 5d bc 0a 09 af 3d bf c6 a3 3e
       -0.32282794 -0.013516972 0.08546646 0.3198757
000320 9a 9e eb 3d 7a a4 bd be fc 70 7d be ae 86 8e 3e
       0.1150486 -0.37039548 -0.24750131 0.27837127
000330 8b 7e d9 bc 16 63 78 be 54 b1 4e be 1d 8f 95 3d
       -0.026549598 -0.24256548 -0.20184833 0.07302687
000340 76 67 a8 be 89 ed c2 3c ac 8c d2 bd 0a e3 92 3d
       -0.32891434 0.023794906 -0.10280737 0.071722105
000350 05 85 48 3c 01 22 d1 bc 87 11 87 bd 93 03 5d bf
       0.012238746 -0.02552891 -0.0659514 -0.8633358
000360 9d a8 c8 3c 4f 50 05 3e ad 5e ba 3d 8e 87 eb bc
       0.024494464 0.13018917 0.09100089 -0.028751161
000370 28 0a b2 be 58 d0 81 bd 6f 61 09 be 2e f2 6c be
       -0.34773374 -0.063385665 -0.13416074 -0.23139259
000380 fe 8d 70 be a2 af 41 3e b9 71 88 bd 2b f9 9d bd
       -0.23491666 0.18914655 -0.06662316 -0.07713541
000390 b2 aa cb 3d fb 33 fc 3d 62 27 13 bc 13 29 36 be
       0.09944667 0.12314602 -0.008981558 -0.17789106
0003a0 f7 96 58 be da 51 04 3f 08 04 46 3e 48 1b 96 3e
       -0.21151339 0.51687396 0.19337475 0.2931769
0003b0 b1 ce 5f 3e 28 55 fa bd f9 fa 45 3d 73 e1 38 3c
       0.2185619 -0.122232735 0.04833505 0.01128422
0003c0 b5 0f f2 bd e2 85 e2 3d ce 69 d5 3d 2b 79 56 bd
       -0.11819402 0.11060692 0.10420571 -0.05236165
0003d0 3f 4b 44 3e 5d b9 e6 be 2f 43 d8 bd 61 3c 35 3e
       0.19169329 -0.45063296 -0.10559689 0.17698814
0003e0 af a3 9f bd 4e 4b 8c bd 8f 80 d6 3e 2f 77 8c be
       -0.07794892 -0.06850301 0.41894957 -0.2743468
0003f0 2f ad a1 3d 9e 11 8a 3e 53 f0 d6 3d e8 2a 97 3d
       0.0789436 0.26966566 0.10495057 0.073812306
